src/models/ppo_model.pth (torch, 42578 bytes, 11 tensors)

actor.0.weight f4 [64, 6]
0.13383639 0.15232548 0.20902689 0.22817522 -0.23400263 -0.0392517 0.031211834 0.3152536
-0.10183849 0.16602379 0.038482342 -0.025067689 0.03320927 0.044263 0.054867446 0.01872757
-0.12807502 0.079809405 -0.0009698382 -0.21292122 0.022486607 0.3055759 -0.025300505 0.10519525
-0.043932274 -0.10704483 0.070884466 0.24491107 0.023531161 0.09863614 -0.19262262 0.25348485
-0.21367611 0.036485497 -0.29600632 0.022743864 -0.11814907 -0.2518365 0.08370531 -0.15664032
0.08523036 0.18643852 0.09201088 -0.043561593 -0.12003158 0.059704475 0.300452 0.19596073
-0.3875774 0.105608545 0.23799261 -0.2694916 0.15954179 -0.21906808 0.03310692 0.06443519
0.010600589 -0.11303647 0.013499531 -0.25717288 -0.021483108 0.099279225 -0.06459019 0.104042284
0.09997738 -0.0982908 0.25810856 0.20367911 0.10574802 0.08536237 0.2986462 -0.22247218
-0.025741689 0.3839183 0.15542653 0.0962067 0.08577238 -0.31105876 -0.0104142865 0.26530161
0.03782814 0.251468 0.123552725 0.10328019 0.10158241 0.09829449 -0.09876306 0.39030284
-0.12601331 -0.06757195 0.43563196 -0.28415054 0.11573055 -0.1634151 0.03198469 0.1285748
-0.400588 0.10492956 0.04689832 0.07828441 -0.13938065 0.23980433 0.088109836 0.04691387
-0.4361538 0.03820042 -0.24430434 0.14208303 0.13585328 0.19443607 0.0023293037 -0.32304472
-0.061292253 -0.0071962844 -0.08134986 0.0486833 -0.08168413 -0.29249424 0.011416187 0.28837892
-0.023350168 -0.074802734 0.24871409 -0.1938084 -0.16336457 -0.3149818 0.22872946 -0.28186914
-0.1290693 -0.21480688 -0.10469728 -0.015271435 -0.24094746 -0.3596011 0.036128793 0.18352187
0.22154285 -0.030488677 -0.15105014 0.06332588 -0.31916553 -0.19577669 0.17881079 0.009969351
-0.0024814738 -0.10448346 0.16288981 0.32948375 -0.17297216 0.16326135 0.04776088 -0.009802931
0.24294242 0.058942582 0.09095935 -0.2606582 0.100081645 -0.039514676 -0.044966877 0.13137564
0.038000967 0.014198427 0.029312806 -0.010225708 -0.014257481 -0.019947564 0.14666294 0.08780474
-0.572216 -0.10441045 -0.024195476 -0.047475696 -0.13322613 0.056756552 0.12125848 0.17370933
-0.089875214 -0.24332778 0.07062885 -0.26588303 -0.1609259 -0.25140837 0.11910158 0.13728894
0.2294845 -0.0736845 -0.1800051 -0.30397284 0.12859628 0.05157914 0.08268159 -0.028313596
-0.22785987 0.089384034 0.29549527 -0.1322413 -0.098770425 0.26584056 -0.13281964 -0.32725787
-0.13248955 0.2936749 0.05034943 -0.27185637 0.24771601 0.1820434 -0.031451467 -0.06517985
0.08191317 0.24585205 -0.06645348 0.079679444 -0.22995426 0.035102025 -0.23477785 -0.0969921
0.038435135 0.0027474216 -0.21725689 -0.0117097255 -0.19002043 -0.3612817 -0.040802583 -0.34706095
-0.26447588 -0.18749744 -0.032377597 0.06896112 0.017446492 0.020064624 0.19255784 0.23392539
0.11936184 0.40326828 -0.14764172 -0.20843403 0.2770984 0.024854064 -0.5091763 -0.13831542
-0.04135034 0.26886606 0.15660506 0.1045055 -0.0036269415 -0.28840226 -0.07296175 -0.13466632
0.23669107 -0.3361532 0.029231329 -0.09140344 -0.056095194 0.16523257 -0.12329422 -0.2749607
00000000: 680c 093e 36fb 1b3e 250b 563e c4a6 693e
00000010: 639e 6fbe 64c6 20bd f6af ff3c eb68 a13e
00000020: b390 d0bd 2402 2a3e a99f 1d3d c15a cdbc
00000030: 7206 083d 1f4d 353d b0bc 603d 906a 993c
00000040: 1926 03be 1d73 a33d bd3c 7eba 0508 5abe
00000050: d535 b83c 7274 9c3e 0143 cfbc 9b70 d73d
00000060: 54f2 33bd 523a dbbd e02b 913d f8c9 7a3e
00000070: 6cc4 c03c bf01 ca3d dd3e 45be c4c8 813e
00000080: e9cd 5abe d171 153d 248e 97be 5751 ba3c
00000090: 24f8 f1bd b7f0 80be b16d ab3d 5266 20be
000000a0: 418d ae3d bde9 3e3e 3370 bc3d a46d 32bd
000000b0: 1ed3 f5bd ae8c 743d d8d4 993e eea9 483e
000000c0: 8c70 c6be 4b49 d83d 56b4 733e cefa 89be
000000d0: ec5e 233e 6253 60be 1f9b 073d 99f6 833d
000000e0: 18ae 2d3c aa7f e7bd 232d 5d3c 2aac 83be
000000f0: 58fd afbc e852 cb3d dd47 84bd 1f14 d53d
00000100: f1c0 cc3d b04c c9bd ce26 843e 4291 503e
00000110: 6b92 d83d 77d2 ae3d 28e8 983e bfcf 63be
00000120: 3ce0 d2bc f090 c43e 2228 1f3e 0508 c53d
00000130: 6ea9 af3d 1843 9fbe afa0 2abc 9dd5 873e
00000140: aef1 1a3d 6ac0 803e 3609 fd3d 9084 d33d
00000150: 700a d03d 9f4e c93d 4a44 cabd c6d5 c73e
00000160: a209 01be 2a63 8abd 270b df3e 2e7c 91be
00000170: 2304 ed3d 4a56 27be 6102 033d 1da9 033e
00000180: df19 cdbe 4fe5 d63d 7418 403d 9453 a03d
00000190: cdb9 0ebe 448f 753e ee72 b43d c228 403d
000001a0: 8d4f dfbe 0b78 1c3d eb2a 7abe 377e 113e
000001b0: 1f1d 0b3e 401a 473e 3ba7 183b 1e66 a5be
000001c0: 960d 7bbd cfce ebbb c19a a6bd 2468 473d
000001d0: 024a a7bd cec1 95be f50a 3b3c 67a6 933e
000001e0: da48 bfbc 2d32 99bd e8ae 7e3e b675 46be
000001f0: 0b49 27be 4b45 a1be 0e38 6a3e 2751 90be
00000200: be2a 04be 56f6 5bbe 876b d6bd 0a35 7abc
00000210: eeba 76be a31d b8be c9fb 133d 28ed 3b3e
00000220: 21dc 623e 64c3 f9bc e3ac 1abe 00b1 813d
00000230: aa69 a3be af79 48be 2d1a 373e 7d56 233c
00000240: 39a0 22bb 6dfb d5bd 96cc 263e 18b2 a83e
00000250: 9d1f 31be fc2d 273e eaa0 433d 799c 20bc
00000260: e6c5 783e c76d 713d e548 ba3d fe74 85be
00000270: 9bf7 cc3d 24da 21bd 302f 38bd 5687 063e
00000280: e7a6 1b3d 85a0 683c 6921 f03c ba89 27bc
00000290: 3698 69bc 1369 a3bc cf2e 163e f9d2 b33d
000002a0: bf7c 12bf 25d5 d5bd 9735 c6bc e075 42bd
000002b0: 6e6c 08be 8f79 683d 5e56 f83d dce0 313e
000002c0: 7f10 b8bd eb2a 79be dca5 903d d221 88be
000002d0: c2c9 24be 99b8 80be 87eb f33d 7995 0c3e
000002e0: fcfd 6a3e e6e7 96bd 4253 38be 54a2 9bbe
000002f0: beae 033e a644 533d f754 a93d eaf1 e7bc
00000300: 1954 69be fa0e b73d 284b 973e 436a 07be
00000310: 2648 cabd 411c 883e df01 08be 588e a7be
00000320: 57ab 07be 8e5c 963e 343b 4e3d c230 8bbe
00000330: 44a9 7d3e 9669 3a3e 41d3 00bd 037d 85bd
00000340: 18c2 a73d a4c0 7b3e c318 88bd fa2e a33d
00000350: 2179 6bbe 24c7 0f3d 9b69 70be cba3 c6bd
00000360: 296e 1d3d 160e 343b 9778 5ebe 26da 3fbc
00000370: b794 42be eaf9 b8be 9c20 27bd f9b1 b1be
00000380: 6269 87be 54ff 3fbe 5f9e 04bd 7d3b 8d3d
00000390: f2eb 8e3c 915e a43c e22d 453e 238a 6f3e
000003a0: fb73 f43d 2e79 ce3e 642f 17be bb6f 55be
000003b0: d7df 8d3e c09a cb3c 6159 02bf 8fa2 0dbe
000003c0: f95e 29bd d0a8 893e 145d 203e fb06 d63d
000003d0: fbb1 6dbb 76a9 93be f86c 95bd f8e5 09be
000003e0: 255f 723e 461c acbe 8a76 ef3c ba31 bbbd
000003f0: 13c4 65bd ba32 293e ae81 fcbd a6c7 8cbe

actor.0.bias f4 [64]
9.318402e-12 0.0 -2.058655e-09 -3.7084903e-06 -4.4109715e-05 0.0 3.5321968e-11 0.0
-1.814055e-11 0.0 -2.54667e-07 0.0 -2.657803e-08 -0.00015917055 1.1278181e-14 0.0
0.0 1.3432017e-10 0.0 -3.415269e-11 0.0 -3.7020992e-10 2.1851727e-10 -9.2533405e-11
-0.000152139 0.0 0.0 0.0 0.0 0.0 1.0723374e-08 0.0
0.0 0.0 0.0 0.0 1.7851606e-10 0.0 0.0 0.0
8.493824e-09 0.0 0.0 0.0 5.3143463e-05 1.0748189e-09 0.0 -3.761279e-09
-7.773522e-10 0.0 -3.6178707e-10 -1.183745e-08 0.0 0.0 0.0 0.0
-8.0063256e-10 0.0 0.0 0.0 7.0745204e-10 0.0 2.4448402e-10 1.3067946e-11
00000000: 5aee 232d 0000 0000 3e78 0db1 61df 78b6
00000010: 7202 39b8 0000 0000 0059 1b2e 0000 0000
00000020: e390 9fad 0000 0000 2ab9 88b4 0000 0000
00000030: b54d e4b2 05e7 26b9 6e2b 4b28 0000 0000
00000040: 0000 0000 c4af 132f 0000 0000 8334 16ae
00000050: 0000 0000 6a86 cbaf 2543 702f ad7b cbae
00000060: 8087 1fb9 0000 0000 0000 0000 0000 0000
00000070: 0000 0000 0000 0000 e639 3832 0000 0000
00000080: 0000 0000 0000 0000 0000 0000 0000 0000
00000090: ce47 442f 0000 0000 0000 0000 0000 0000
000000a0: 3cec 1132 0000 0000 0000 0000 0000 0000
000000b0: 5ce6 5e38 d4b8 9330 0000 0000 8f3c 81b1
000000c0: 4cad 55b0 0000 0000 01e5 c6af a85d 4bb2
000000d0: 0000 0000 0000 0000 0000 0000 0000 0000
000000e0: 8213 5cb0 0000 0000 0000 0000 0000 0000
000000f0: 8376 4230 0000 0000 1168 862f cce4 652d

actor.2.weight f4 [64, 64]
-0.21149407 -0.19364944 0.0054827775 0.13667938 0.10002173 -0.15020171 -0.36548954 0.08598768
0.2706124 -0.02070427 -0.21773371 -0.34668207 0.0007775677 -0.038032167 -0.09601717 0.14639449
0.4147433 -0.07906652 -0.19678716 -0.10528359 -0.24473567 -0.33668274 -0.043023046 -0.19441712
0.24861704 -0.28232485 0.21492085 -0.022087798 0.14004704 0.09515516 -0.08512867 0.22348997
-0.102103464 0.23647067 -0.28027803 -0.108990334 0.032591805 -0.019659888 -0.14543334 -0.106161065
-0.17208579 -0.19616693 -0.18063912 0.19087827 0.15726663 0.32493863 -0.010925102 0.27539223
0.11599516 -0.14901662 -0.1756867 0.16718124 -0.14174041 0.072122164 -0.034854323 -0.09238096
-0.08871897 0.14094815 0.049025457 0.11579601 -0.011201669 -0.07133307 0.22621866 -0.008045582
0.33961776 0.22125347 -0.0065113767 0.24774142 -0.31753525 -0.13919929 -0.0011525758 -0.05332344
0.031282112 0.1322697 -0.0634618 0.3313895 -0.007543015 -0.27603194 0.10495836 -0.067768104
-0.16666104 0.18299954 0.050846692 0.03568326 -0.08249741 0.09483789 -0.06281676 -0.0008285192
-0.15066378 -0.20122103 0.088472046 -0.30256933 0.13336942 0.044899456 0.07521585 0.15676746
0.047458217 0.14636563 -0.1330706 -0.27115214 0.21197869 -0.20318203 0.07748342 -0.09616865
0.018586887 -0.20884562 0.02082517 -0.12756683 -0.14595786 -0.055205878 0.10620419 0.0014179029
0.09412165 -0.13511245 0.110305995 0.17282873 0.20666993 0.2129147 0.063382916 0.14912857
-0.1480714 0.5617467 -0.17675212 0.12953632 -0.14805038 0.39565235 0.29920992 -0.045714866
-0.10367323 -0.16241942 0.024024887 -0.02730207 -0.098060146 0.26054078 0.15927905 -0.3139004
-0.2674299 -0.108501464 0.004686901 0.10508658 -0.15232077 -0.22499526 0.047686275 0.10987629
0.25644264 0.05442141 -0.13408576 -0.112907104 0.2839536 0.13097607 0.038628016 -0.14274584
-0.07915146 0.017678505 0.16117235 0.21929334 -0.0027432148 -0.25464126 -0.1119172 0.047833256
-0.18145643 0.08045046 0.10457793 0.04901296 -0.16152021 -0.008903064 -0.20509835 0.14390154
0.11907418 -0.23725022 -0.3202828 -0.22241001 -0.36163583 -0.14252535 0.3894281 0.34765196
-0.24151288 -0.15072595 0.007663729 0.12134648 -0.15147795 0.44805917 -0.021109369 -0.23533131
-0.04643477 -0.12126385 -0.039610006 0.15941192 -0.11393274 0.05010371 -0.03016286 -0.046569224
0.049121168 -0.1126437 -0.23325433 0.05863672 -0.20160441 0.10845489 -0.104125336 0.046830107
0.0044953567 0.042850032 0.14182988 -0.18514597 0.0061904523 -0.06421133 0.24511951 0.028391851
-0.020141428 -0.24602167 -0.3849555 -0.05856722 -0.43458378 -0.074720256 -0.10996574 -0.118889205
-0.16363165 0.21285418 0.012452326 0.37769073 0.19038919 -0.08271944 -0.021838564 -0.37986416
0.104855254 0.106449686 0.13400048 -0.077023104 -0.009316664 -0.05224919 -0.028434852 -0.07660177
-0.34086204 0.18896946 0.06622381 -0.20977816 -0.31903732 0.11117745 -0.16339538 -0.41236338
-0.1476428 0.21656898 0.035045844 0.26363853 0.11939957 0.27061108 0.12002142 -0.16515738
0.10509556 0.20517254 0.14100373 -0.14946622 0.0073145023 0.021108402 -0.036776967 0.002525869
00000000: e791 58be 0a4c 46be dfa8 b33b aef5 0b3e
00000010: 31d8 cc3d 7ace 19be 7221 bbbe 4f1a b03d
00000020: b58d 8a3e 009c a9bc 96f5 5ebe 5080 b1be
00000030: afd5 4b3a 9ec7 1bbd a6a4 c4bd 70e8 153e
00000040: 3c59 d43e a1ed a1bd 9382 49be ec9e d7bd
00000050: fd9b 7abe ae61 acbe ef38 30bd 4815 47be
00000060: 7795 7e3e e28c 90be 3614 5c3e 78f1 b4bc
00000070: 7e68 0f3e b5e0 c23d f157 aebd 8eda 643e
00000080: 9f1b d1bd 5e25 723e 9a80 8fbe 5336 dfbd
00000090: fc7e 053d c60d a1bc 7aec 14be f96a d9bd
000000a0: 4237 30be fcdf 48be 76f9 38be 9875 433e
000000b0: 810a 213e 5b5e a63e 33ff 32bc 3600 8d3e
000000c0: df8e ed3d d097 18be 37e7 33be 8f31 2b3e
000000d0: 6624 11be c9b4 933d 68c3 0ebd 3b32 bdbd
000000e0: 4bb2 b5bd b654 103e ebce 483d 7526 ed3d
000000f0: 3587 37bc 1317 92bd dda5 673e 9ed1 03bc
00000100: 61e2 ad3e 4590 623e 635d d5bb edaf 7d3e
00000110: fb93 a2be 428a 0ebe 0712 97ba ae69 5abd
00000120: ac21 003d b571 073e 43f8 81bd e2ab a93e
00000130: 652b f7bb 0f54 8dbe 69f4 d63d 01ca 8abd
00000140: 31a9 2abe 3b64 3b3e 9f44 503d 9c28 123d
00000150: 67f4 a8bd 5e3a c23d 13a6 80bd fb30 59ba
00000160: 9b47 1abe e30c 4ebe d530 b53d 5eea 9abe
00000170: fe91 083e 7ee8 373d c40a 9a3d a687 203e
00000180: 8c63 423d dfe0 153e a943 08be 74d4 8abe
00000190: f110 593e f30e 50be a1af 9e3d 12f4 c4bd
000001a0: 8743 983c a0db 55be 8c99 aa3c e1a0 02be
000001b0: fa75 15be 8f1f 62bd 9581 d93d edd8 b93a
000001c0: dac2 c03d eb5a 0abe 1ce8 e13d 04fa 303e
000001d0: 48a1 533e 5006 5a3e e7ce 813d 29b5 183e
000001e0: 07a0 17be a2ce 0f3f 82fe 34be 2ba5 043e
000001f0: 859a 17be f292 ca3e 0b32 993e 833f 3bbd
00000200: a152 d4bd 4751 26be d7cf c43c 97a8 dfbc
00000210: c2d3 c8bd 9a65 853e 0c1a 233e 8eb7 a0be
00000220: 92ec 88be 0436 debd 9394 993b a237 d73d
00000230: faf9 1bbe 2865 66be af52 433d d206 e13d
00000240: 734c 833e fce8 5e3d c74d 09be d73b e7bd
00000250: 5e62 913e 971e 063e 6938 1e3d f72b 12be
00000260: 291a a2bd 83d2 903c 5d0a 253e 6f8e 603e
00000270: 82c7 33bb 5760 82be d834 e5bd ceec 433d
00000280: b7cf 39be 36c3 a43d f42c d63d d0c1 483d
00000290: 8e65 25be 28de 11bc 4d05 52be ed5a 133e
000002a0: 2add f33d b9f1 72be 1bfc a3be 73bf 63be
000002b0: 5528 b9be 2af2 11be 1f63 c73e 70ff b13e
000002c0: 274f 77be e757 1abe 0520 fb3b 8184 f83d
000002d0: 091d 1bbe 0368 e53e 8eed acbc b1fa 70be
000002e0: 6332 3ebd 2e59 f8bd 1a3e 22bd e13c 233e
000002f0: 9255 e9bd 8c39 4d3d 1a18 f7bc 5fbf 3ebd
00000300: 4733 493d bdb1 e6bd 39da 6ebe 0f2d 703d
00000310: 6371 4ebe 991d de3d aa3f d5bd edd0 3f3d
00000320: c94d 933b 8483 2f3d da3b 113e e896 3dbe
00000330: 47d9 ca3b 3b81 83bd 9c00 7b3e 0796 e83c
00000340: a3ff a4bc 1bed 7bbe e318 c5be 2ee4 6fbd
00000350: c481 debe ef06 99bd b835 e1bd 2f7c f3bd
00000360: 0e8f 27be 72f6 593e d704 4c3c ae60 c13e
00000370: 62f5 423e cf68 a9bd cae6 b2bc 8e7d c2be
00000380: 5abe d63d 4b02 da3d 6c37 093e 4abe 9dbd
00000390: eca4 18bc 3f03 56bd 35f0 e8bc 64e1 9cbd
000003a0: 7885 aebe 3681 413e 59a0 873d 16d0 56be
000003b0: dc58 a3be 01b1 e33d 1e51 27be 4b21 d3be
000003c0: ad2f 17be 42c4 5d3e 3b8c 0f3d a1fb 863e
000003d0: c387 f43d 898d 8a3e cacd f53d 041f 29be
000003e0: 573c d73d c018 523e 4863 103e ac0d 19be
000003f0: 7eae ef3b 87eb ac3c 72a3 16bd 0d89 253b

actor.2.bias f4 [64]
-0.010824121 -0.004838392 -0.00058405864 0.020434162 -0.015254873 -0.017884418 0.018969454 -0.0061006877
-0.00723357 -0.0013575744 -0.00024068671 -0.0077830893 -0.023717873 0.015824428 -0.009037273 -0.026192216
-0.018210758 0.0024568357 0.0117372135 0.024650745 0.019674156 -0.011839783 0.008175326 0.0014608346
-0.01724487 0.013777958 -0.01406019 0.0010124743 0.0062431144 -0.012198399 -0.002021335 0.019641075
-0.014242217 -0.014640751 -0.00057189586 -0.019082613 -0.02474264 -0.0021735074 0.014354975 0.018883811
0.007038769 0.016330574 0.00067549426 0.015791167 -0.014386491 -0.011220474 0.015676817 -0.0029798336
0.0079788435 -0.00962405 0.014656689 0.008951935 0.018890204 0.0041341316 -0.00025977043 -0.009842028
-0.0015735992 -0.015244448 -0.011784802 0.020035543 -0.023476085 0.0037958145 -0.008215764 -0.010450438
00000000: a757 31bc 608b 9ebb 831b 19ba 8b65 a73c
00000010: 93ef 79bc 5882 92bc d465 9b3c 47e8 c7bb
00000020: 9507 edbb a3f0 b1ba d960 7cb9 4909 ffbb
00000030: fc4b c2bc 3ba2 813c 1211 14bc 0f91 d6bc
00000040: ba2e 95bc dd02 213b 714d 403c 5cf0 c93c
00000050: b22b a13c a6fb 41bc cdf1 053c 7a79 bf3a
00000060: 1d45 8dbc f2bc 613c b65c 66bc 00b5 843a
00000070: 0a93 cc3b cbdb 47bc 6078 04bb 52e6 a03c
00000080: 3058 69bc c3df 6fbc 48eb 15ba 2453 9cbc
00000090: 14b1 cabc 6771 0ebb 2131 6b3c 39b2 9a3c
000000a0: 79a5 e63b b2c7 853c a713 313a 7a5c 813c
000000b0: 51b5 6bbc 14d6 37bc ab6c 803c 5049 43bb
000000c0: b2b9 023c 31ae 1dbc 9c22 703c 23ab 123c
000000d0: a1bf 9a3c 9c77 873b cc31 88b9 7540 21bc
000000e0: 3a41 ceba d9c3 79bc 0b15 41bc 9421 a43c
000000f0: eb50 c0bc 33c3 783b 699b 06bc 5038 2bbc

actor.4.weight f4 [4, 64]
0.027317693 0.017078789 0.013305226 -0.026385058 0.029343918 0.016467053 -0.02863391 0.026644569
0.0033373889 0.024602678 0.020164164 0.019539049 0.02328017 -0.026706364 0.025986353 0.03477459
0.02565882 -0.0016325931 -0.026534468 -0.028636549 -0.025470702 0.024813108 -0.021968978 -0.024708636
0.031778015 -0.024110448 0.025568431 -0.011530678 -0.026733065 0.026306773 -0.026622532 -0.03054383
0.028544169 0.02404712 0.024067331 0.024213374 0.029453935 0.0276618 -0.009771235 -0.026720768
-0.016156185 -0.025010027 -0.016018001 -0.023644162 0.019747563 0.027407032 -0.026741356 0.02650531
-0.025416365 0.026712688 -0.025978526 -0.026448922 -0.03014038 -0.025233036 -0.004740566 0.026806321
-0.023612095 0.026145734 0.021591375 -0.026153551 0.032760654 -0.0153782545 0.023007076 0.02560199
-0.011095414 0.013038249 0.019082485 0.013012673 -0.005261675 -0.0065442263 0.015880093 -0.008630704
-0.00732081 -0.012497321 0.0015070885 0.0058214455 -0.012120686 0.012546355 -0.014009295 -0.013394772
-0.007843797 0.019573575 0.010664917 0.016083242 0.013597277 -0.0135765495 0.017711177 0.0118643595
-0.0072798473 0.013449319 -0.011690168 0.019576514 0.0123741375 -0.012419667 0.007001498 0.0127994325
-0.010610496 -0.019559078 0.014681639 -0.011471069 -0.015362607 -0.009260285 0.011964491 0.0125051085
0.014388948 0.016459526 0.021969777 0.01639867 -0.015798692 -0.011081891 0.010750061 -0.011744616
0.011146885 -0.005930421 0.011507203 0.010436282 0.01148601 0.013334591 -0.01904867 -0.010594962
0.0024868553 -0.009771561 -0.0103778085 0.012627959 -0.007030123 -0.0047434596 -0.009798643 -0.015191595
-0.006277976 -0.0012732493 -0.00023992754 -0.0012904343 -0.0035460286 -0.013924015 0.00017780758 -0.006148357
-0.0014969565 -0.004729358 -0.0026388902 -0.00027577137 -0.0037619134 0.0052510942 -0.0012754647 -7.502641e-05
-0.0035755886 0.0018090793 0.0041683144 0.0019224535 0.0025277652 0.0003625263 0.0037488935 0.0033330077
-0.008760475 0.0015862158 -0.0023427526 0.007598326 0.0025444916 -0.0039552064 0.0036023778 0.0028777048
-0.0039370493 0.002043367 -0.008069874 -0.0016057134 -0.011462322 -0.0035784345 0.006579277 0.0053841933
0.00049092487 0.005256647 0.0030294626 0.0016738016 -0.007817331 -0.005210781 0.0032663334 -0.00045378596
0.004631138 -0.0036797065 0.004113543 0.0023044203 0.0077010603 0.004022656 0.0011756411 -0.0065598562
0.0021932297 -0.006892924 -0.0058659585 0.003075567 -0.0061089173 0.008459345 -0.00358421 -0.0023354935
-0.0061903936 -0.024138305 -0.031063057 0.0050304667 -0.01004571 0.005963226 0.006620082 -0.011675325
0.006343629 -0.008529027 -0.016737217 -0.024284247 -0.0037951905 0.0074085174 -0.007857968 -0.01061733
-0.0053706537 -0.0235547 0.006610841 0.007913431 0.004536059 -0.0007384851 -0.0024422705 0.0070626293
-0.007851108 0.004919746 -0.008752735 -0.01776704 0.005204156 -0.0077599655 0.01655351 0.00733319
-0.008759622 0.00077932194 -0.017421208 -0.008120918 -0.0040437123 -0.0070653395 -0.012773192 0.0076592444
0.0008418819 0.0021837568 -0.014566266 0.0018770945 0.0073435484 -0.009133307 0.01105526 -0.009092035
0.007538535 -0.008981693 0.008799276 0.0067673177 0.007948496 0.00673882 0.020841481 -0.0076398905
0.014410788 -0.0075208256 -0.0015304148 0.005304093 -0.013849743 0.008585273 -0.0041545443 -0.0026111766
00000000: 5bc9 df3c d1e8 8b3c 2afe 593c 7a25 d8bc
00000010: a862 f03c eae5 863c a991 eabc b645 da3c
00000020: 18b8 5a3b 8e8b c93c 512f a53c 5b10 a03c
00000030: 0eb6 be3c 4ec7 dabc 55e1 d43c cd6f 0e3d
00000040: 7232 d23c bcfc d5ba d05e d9bc 3297 eabc
00000050: efa7 d0bc dc44 cb3c 49f8 b3bc c469 cabc
00000060: aa29 023d 4683 c5bc e374 d13c 2beb 3cbc
00000070: 4dff dabc 4d81 d73c 7f17 dabc 0e37 fabc
00000080: 76d5 e93c 77fe c43c da28 c53c 205b c63c
00000090: 6149 f13c 009b e23c 8817 20bc 83e5 dabc
000000a0: fa59 84bc d4e1 ccbc 2f38 83bc 67b1 c1bc
000000b0: a4c5 a13c b684 e03c b010 dbbc aa21 d93c
000000c0: fb35 d0bc 91d4 da3c ebd0 d4bc 69ab d8bc
000000d0: f5e8 f6bc 83b5 cebc c056 9bbb ee98 db3c
000000e0: 276e c1bc 942f d63c 65e0 b03c f93f d6bc
000000f0: 0930 063d 13f5 7bbc 5679 bc3c 44bb d13c
00000100: 8ac9 35bc 619e 553c df52 9c3c 1b33 553c
00000110: 216a acbb f370 d6bb f816 823c cc67 0dbc
00000120: 68e3 efbb 90c1 4cbc 8089 c53a d3c1 be3b
00000130: d795 46bc 3a8f 4d3c 3e87 65bc bf75 5bbc
00000140: 4583 00bc c358 a03c e7bb 2e3c 01c1 833c
00000150: 1dc7 5e3c 2d70 5ebc 0817 913c bb62 423c
00000160: c98b eebb 885a 5c3c 1e88 3fbc ed5e a03c
00000170: e5bc 4a3c dc7b 4bbc d26c e53b b6b4 513c
00000180: a5d7 2dbc 5c3a a0bc 428b 703c 27f1 3bbc
00000190: 72b3 7bbc 73b8 17bc b606 443c 3ae2 4c3c
000001a0: 9fbf 6b3c 21d6 863c f6f9 b33c 8156 863c
000001b0: 426c 81bc d290 35bc 0621 303c 7d6c 40bc
000001c0: 6da1 363c fa53 c2bb b588 3c3c f0fc 2a3c
000001d0: d12f 3c3c 5479 5a3c f50b 9cbc 7e96 2dbc
000001e0: 82fa 223b e618 20bc af07 2abc 80e5 4e3c
000001f0: f25c e6bb 066f 9bbb 7d8a 20bc 2be6 78bc
00000200: 7bb7 cdbb 28e3 a6ba 0f95 7bb9 ca23 a9ba
00000210: 7d64 68bb 8d21 64bc dc71 3a39 2878 c9bb
00000220: 8635 c4ba bbf8 9abb 3bf1 2cbb 6895 90b9
00000230: 6f8a 76bb 5f11 ac3b 7e2d a7ba 7f57 9db8
00000240: 6c54 6abb a11e ed3a 5b96 883b d6fa fb3a
00000250: dda8 253b 7511 be39 ffaf 753b 976e 5a3b
00000260: 1888 0fbc 92e8 cf3a de88 19bb 61fb f83b
00000270: 7cc1 263b ad9a 81bb df15 6c3b e097 3c3b
00000280: 5d02 81bb 02ea 053b 8137 04bc cd76 d2ba
00000290: 77cc 3bbc 2b84 6abb fa96 d73b e36d b03b
000002a0: 69b1 003a f33f ac3b f389 463b 7663 db3a
000002b0: 4314 00bc 33bf aabb fb0f 563b 1fea edb9
000002c0: cdc0 973b 3b27 71bb e6ca 863b c205 173b
000002d0: 2d59 fc3b 7cd0 833b f817 9a3a 10f4 d6bb
000002e0: 4abc 0f3b 0ade e1bb 3a37 c0bb 748f 493b
000002f0: 502d c8bb 1199 0a3c 11e5 6abb 140f 19bb
00000300: c9d8 cabb b2bd c5bc f477 febc 9dd6 a43b
00000310: c396 24bc 2a67 c33b 46ed d83b dd49 3fbc
00000320: 38de cf3b 55bd 0bbc 7d1c 89bc c2ef c6bc
00000330: bbb8 78bb 26c3 f23b b5be 00bc 4ff4 2dbc
00000340: 4ffc afbb c9f5 c0bc c19f d83b 56a7 013c
00000350: 39a3 943b e596 41ba 800e 20bb a16d e73b
00000360: efa1 00bc d235 a13b a267 0fbc 2f8c 91bc
00000370: a087 aa3b 4f47 febb 3a9b 873c 424b f03b
00000380: 8584 0fbc 694b 4c3a ecb6 8ebc 990d 05bc
00000390: 1e81 84bb 5d84 e7bb a646 51bc 66fa fa3b
000003a0: bdb1 5c3a 5c1d 0f3b 59a7 6ebc d708 f63a
000003b0: 26a2 f03b dea3 15bc 1f21 353c c2f6 14bc
000003c0: d105 f73b f327 13bc d72a 103c 60c0 dd3b
000003d0: 693a 023c 52d1 dc3b c1bb aa3c 0c58 fabb
000003e0: 3a1b 6c3c 4271 f6bb 3398 c8ba f5cd ad3b
000003f0: 08ea 62bc 3fa9 0c3c d822 88bb 4620 2bbb

actor.4.bias f4 [4]
-0.02623672 0.011280126 0.0042982525 0.0072684833
00000000: 64ee d6bc 47d0 383c 5bd8 8c3b 752c ee3b

critic.0.weight f4 [64, 6]
-0.21121602 0.006937286 0.09085737 -0.24431045 0.11094753 -0.2962456 -0.07038261 0.1126676
-0.073308066 -0.04185031 0.37849602 0.29514706 -0.17603567 0.13920547 0.22009662 -0.036227174
-0.0037016957 -0.04498651 -0.25207588 -0.15751076 0.21030599 0.15835397 -0.19953728 0.21757431
0.002435216 0.11727863 0.19024743 0.1574184 0.033362985 -0.5024447 0.13829352 0.009340534
0.1223439 -0.29246283 0.022323975 0.29583564 -0.31852967 -0.11571719 0.13499732 -0.05412732
0.2505379 0.29374957 -0.2777088 -0.19480143 -0.24676223 -0.15792575 0.31041086 -0.16472317
0.043511882 -0.13789095 -0.36964875 0.12441019 0.15993421 0.16948003 0.077852525 -0.09575451
0.12631662 0.122042 0.017868709 -0.026025621 0.171809 0.018978536 0.24434476 0.008125267
-0.068582214 0.22166835 -0.29858476 -0.039207026 0.15976365 -0.24535012 -0.40555227 0.11116849
-0.021886434 0.112087764 0.10051269 -0.1304099 -0.17409414 0.015661035 -0.13819544 0.010476604
-0.03384696 -0.2737657 -0.17185824 -0.005982405 -0.054322977 0.13007778 -0.036623783 -0.09043015
-0.23923157 0.07431662 0.17603707 0.32487345 0.33935383 0.34844273 0.12341875 0.15483448
0.028153744 -0.13327299 0.11913434 0.2857724 0.075993896 -0.13663052 -0.37438405 0.30468872
0.21685645 0.06335974 0.15432794 0.14061348 -0.100973174 0.39944246 0.1351216 0.21100254
-0.28768763 -0.31066748 0.15391569 0.019358218 0.09460345 -0.20106092 0.16190588 0.006645401
0.30042022 -0.11463374 0.07800359 -0.07136147 -0.09478098 0.29231843 -0.10586192 -0.023405958
-0.029785467 -0.044777382 0.1322357 0.058840245 0.1102522 -0.14951953 -0.22126286 -0.16038175
-0.1428425 0.086944096 0.035258424 0.3544434 -0.12308357 -0.07102199 0.33250332 0.08783902
-0.17026931 -0.21990362 0.1343562 0.2835965 0.024681836 0.04333493 0.0017549377 0.033434585
0.14935322 -0.186844 0.14896503 -0.27625334 0.017645355 0.18369055 0.01863909 -0.05884613
0.084196664 -0.08426743 -0.51598954 -0.002126519 -0.066608615 -0.102121085 0.046182536 -0.0022416068
-0.31385618 -0.24472812 -0.02147137 -0.03970074 0.16417001 0.06628096 0.26842123 0.12396406
-0.3058414 -0.09853176 -0.2545115 -0.23797484 -0.29035348 -0.05315941 -0.27455953 -0.035727747
-0.24221632 -0.11889475 -0.17703426 0.33369318 -0.22637486 -0.064822 -0.23506606 -0.050675604
-0.201769 0.33058324 -0.26335898 0.22976324 -0.09050954 -0.038648203 0.07803081 -0.09485183
0.32354197 -0.3209569 -0.14477484 -0.10648086 0.009101796 -0.105268866 0.16419017 -0.043171767
0.33098733 -0.11213903 -0.25204748 0.017148964 0.11651733 -0.006573049 0.062222313 -0.19117798
-0.15824522 -0.026645675 0.15921499 0.19145061 0.10052815 0.3327371 -0.100418426 0.10594964
-0.08141139 -0.03739017 -0.116881445 0.14936979 0.04748455 0.06406135 0.14958334 0.061505158
0.022458456 -0.108898886 0.14191268 -0.12716894 -0.23595764 0.40801972 -0.022999873 0.08112606
-0.060796127 0.17880471 0.32522932 0.16245005 -0.10768137 0.14792168 0.15870847 0.050881
0.03912856 -0.06938747 -0.10673155 -0.022826428 0.0660176 0.065317445 -0.34737778 0.07336403
00000000: 0349 58be 2c52 e33b 6e13 ba3d 852c 7abe
00000010: 7538 e33d 81ad 97be c224 90bd 45be e63d
00000020: 8a22 96bd 3b6b 2bbd 3bca c13e 841d 973e
00000030: b242 34be e18b 0e3e 0261 613e f262 14bd
00000040: 2698 72bb c643 38bd 1710 81be 804a 21be
00000050: 745a 573e 8b27 223e 8053 4cbe cdcb 5e3e
00000060: 2598 1f3b c72f f03d 39d0 423e 4a32 213e
00000070: a0a7 083d 37a0 00bf d19c 0d3e 0a09 193c
00000080: 708f fa3d b0bd 95be c5e0 b63c c577 973e
00000090: 5216 a3be 22fd ecbd bd3c 0a3e 9cb4 5dbd
000000a0: 8146 803e 5866 963e d92f 8ebe 077a 47be
000000b0: 3daf 7cbe 4ab7 21be 2cee 9e3e 31ad 28be
000000c0: 8439 323d 4933 0dbe 9a42 bdbe c5ca fe3d
000000d0: cbc5 233e 2c8c 2d3e 2571 9f3d f11a c4bd
000000e0: 2559 013e 28f1 f93d 6661 923c af33 d5bc
000000f0: b3ee 2f3e e078 9b3c 8335 7a3e d71f 053c
00000100: d574 8cbd 07fd 623e 1ae0 98be 8c97 20bd
00000110: 1599 233e 103d 7bbe 8ca4 cfbe 4eac e33d
00000120: 2e4b b3bc 458e e53d 99d9 cd3d 2c8a 05be
00000130: bc45 32be 924b 803c 1b83 0dbe 10a6 2b3c
00000140: 1ca3 0abd 052b 8cbe 9bfb 2fbe 0d08 c4bb
00000150: c581 5ebd 1c33 053e d202 16bd 7133 b9bd
00000160: 1ff9 74be 5033 983d 1043 343e d055 a63e
00000170: c9bf ad3e 1667 b23e f8c2 fc3d ee8c 1e3e
00000180: aea2 e63c b778 08be b4fc f33d c350 923e
00000190: b0a2 9b3d dfe8 0bbe 44af bfbe 2900 9c3e
000001a0: 9e0f 5e3e c0c2 813d 2508 1e3e fbfc 0f3e
000001b0: 06cb cebd b983 cc3e 515d 0a3e 0d11 583e
000001c0: cb4b 93be cf0f 9fbe 139c 1d3e 2095 9e3c
000001d0: 74bf c13d eae2 4dbe a8ca 253e aac1 d93b
000001e0: aed0 993e 18c5 eabd 59c0 9f3d f625 92bd
000001f0: 881c c2bd c3aa 953e 22ce d8bd dabd bfbc
00000200: a700 f4bc 7d68 37bd cc68 073e 7802 713d
00000210: e8cb e13d a61b 19be bb92 62be 1d3b 24be
00000220: 4e45 12be bf0f b23d 236b 103d 9b79 b53e
00000230: 3d13 fcbd fa73 91bd e03d aa3e f2e4 b33d
00000240: 145b 2ebe 6a2e 61be ac94 093e 8f33 913e
00000250: 9031 ca3c f87f 313d f005 e63a b4f2 083d
00000260: 0df0 183e 0954 3fbe 4a8a 183e 1471 8dbe
00000270: fe8c 903c 6019 3c3e 01b1 983c a408 71bd
00000280: 4d6f ac3d 6794 acbd e417 04bf 125d 0bbb
00000290: 196a 88bd dc24 d1bd e629 3d3d ece7 12bb
000002a0: c2b1 a0be 029a 7abe bae4 afbc 3e9d 22bd
000002b0: 2f1c 283e 50be 873d 826e 893e dee0 fd3d
000002c0: 3e97 9cbe 05cb c9bd 554f 82be adaf 73be
000002d0: 36a9 94be aebd 59bd 1193 8cbe 4257 12bd
000002e0: 8e07 78be 177f f3bd 7848 35be d5d9 aa3e
000002f0: d0ce 67be 66c1 84bd 28b5 70be 3991 4fbd
00000300: 889c 4ebe 3542 a93e fdd6 86be 0e47 6b3e
00000310: 115d b9bd 944d 1ebd 9ece 9f3d ad41 c2bd
00000320: 4ba7 a53e 7654 a4be db3f 14be a312 dabd
00000330: b31f 153c 3497 d7bd 7821 283e e1d4 30bd
00000340: 2c77 a93e 26a9 e5bd 5e0c 81be fc7b 8c3c
00000350: a3a0 ee3d bb62 d7bb d3dc 7e3d 29c4 43be
00000360: 090b 22be 0848 dabc 4109 233e a10b 443e
00000370: b4e1 cd3d 845c aa3e 2da8 cdbd 20fc d83d
00000380: 04bb a6bd 6f26 19bd 8a5f efbd 65f4 183e
00000390: 297f 423d 9932 833d 602c 193e d5ec 7b3d
000003a0: ccfa b73c 6106 dfbd 8f51 113e 9338 02be
000003b0: e19e 71be f6e7 d03e 3b6a bcbc 6b25 a63d
000003c0: 5c05 79bd 9518 373e 7584 a63e 4e59 263e
000003d0: 0d88 dcbd c878 173e 7984 223e 9868 503d
000003e0: 4545 203d 051b 8ebd 1296 dabd 7dfe babc
000003f0: 3c34 873d 27c5 853d 80db b1be e13f 963d

critic.0.bias f4 [64]
-4.390939e-05 -4.9560815e-05 0.0 0.0 0.0 0.0 -7.7837234e-07 -3.3850392e-05
0.0 0.0 3.8109374e-05 0.0 0.0 0.0 0.0 0.0
0.0 -3.163417e-08 0.0 0.0 5.0095296e-05 -1.4268758e-06 3.1718784e-05 0.0
0.0 0.00022079505 0.0 0.0 -6.686898e-10 1.6331741e-07 0.0 0.0
0.0 6.992442e-06 0.0 -2.5747818e-06 -5.2361077e-07 0.0 0.0 2.8425732e-06
0.0 0.0 0.0 -3.423253e-05 0.0 -2.1907674e-05 -4.1727046e-07 0.0
-1.254472e-05 0.0 -2.0471713e-05 -4.6006993e-05 0.0 0.0 -2.7392447e-05 0.0
0.0 0.0 0.0 0.0 0.0 5.4291762e-05 0.0 0.0
00000000: 592b 38b8 85df 4fb8 0000 0000 0000 0000
00000010: 0000 0000 0000 0000 57f1 50b5 95fa 0db8
00000020: 0000 0000 0000 0000 a1d7 1f38 0000 0000
00000030: 0000 0000 0000 0000 0000 0000 0000 0000
00000040: 0000 0000 23de 07b3 0000 0000 0000 0000
00000050: 6a1d 5238 1483 bfb5 c909 0538 0000 0000
00000060: 0000 0000 3885 6739 0000 0000 0000 0000
00000070: ddce 37b0 595c 2f34 0000 0000 0000 0000
00000080: 0000 0000 9fa0 ea36 0000 0000 6aca 2cb6
00000090: 428e 0cb5 0000 0000 0000 0000 09c3 3e36
000000a0: 0000 0000 0000 0000 0000 0000 e694 0fb8
000000b0: 0000 0000 5fc6 b7b7 3705 e0b4 0000 0000
000000c0: 2a77 52b7 0000 0000 abba abb7 a2f7 40b8
000000d0: 0000 0000 0000 0000 d5c8 e5b7 0000 0000
000000e0: 0000 0000 0000 0000 0000 0000 0000 0000
000000f0: 0000 0000 56b7 6338 0000 0000 0000 0000

critic.2.weight f4 [64, 64]
0.01010776 -0.03849675 -0.26694933 -0.26684138 0.13492092 0.32486075 -0.023381112 0.1132699
-0.18912445 0.03395095 0.00034040064 -0.31611192 -0.10943161 -0.24202389 -0.106967 0.13561074
0.12069481 -0.29115093 -0.26267955 0.56344616 -0.08448612 -0.15116596 -0.017225064 -0.3298843
-0.016579898 0.302693 0.019516688 -0.057913862 -0.042878065 0.085802786 -0.30129248 0.009616905
-0.41173807 0.02665543 0.2067528 -0.3351691 -0.03434302 -0.077465035 -0.07029082 0.016356932
-0.32441956 -0.11101329 0.18467584 0.15013406 -0.33282372 0.023162223 0.2540267 -0.18655859
0.001292016 -0.5034976 -0.10552586 -0.25024673 -0.44018963 0.18787646 0.06544964 0.24561569
-0.094987005 0.32874963 0.24853286 -0.18514384 0.16508281 0.0037720762 -0.14271906 -0.047964286
-0.18620867 -0.1008435 0.08564979 -0.15541434 0.358973 0.3423909 -0.1395296 0.022292025
0.26778552 -0.028473474 0.37862328 -0.087613106 -0.034202103 -0.305491 -0.1362952 0.28748018
0.013260252 -0.1151249 -0.39883053 0.14379811 -0.036177572 0.21045886 -0.16607378 -0.05600033
0.10762243 0.39491826 0.5677894 0.0548734 0.08297912 -0.08042237 -0.19156182 -0.10668449
0.094822854 -0.10243564 0.45813233 -0.11005088 0.09670375 0.058324855 0.11830834 0.10201337
-0.23158045 0.34329972 0.078576155 0.052434795 -0.05191521 0.097621076 0.037796494 -0.35175914
-0.09384847 0.07675571 -0.10176768 -0.14791769 -0.07155123 0.1397266 -0.021423724 0.301149
0.09537441 -0.0017439883 0.17933817 -0.009143355 -0.005829104 0.36526698 0.6334034 0.07828578
0.17369106 -0.0073970137 0.06164357 0.2940681 -0.21917343 -0.009286988 0.12085934 0.32628524
-0.28052786 0.03198333 0.3519166 0.2901648 0.053364575 0.1874322 0.1672445 -0.31127754
-0.10892552 0.639901 0.25195432 -0.0152118085 0.23346916 0.17821635 0.11699028 -0.26468423
0.34349328 -0.036064308 0.09298092 0.08877435 0.017906176 0.13344456 0.18626302 0.22291458
0.025609903 0.07863792 -0.20117573 0.36808717 -0.06798125 0.3083359 0.0026492612 0.037439305
0.032329235 -0.28228098 -0.15686566 0.100581825 0.108533226 -0.32265288 -0.014117737 0.36771002
0.26347005 0.1701005 0.06867407 0.057504 0.29970947 -0.05397513 0.06998623 -0.15550347
-0.045309782 0.3587208 -0.11155097 0.140738 -0.029749528 0.35522923 -0.25674686 0.19468789
-0.06883143 -0.18760966 -0.11735448 -0.41310334 0.15908915 0.15787207 -0.022517495 -0.3521296
0.1598468 0.40631482 -0.008485593 -0.43067193 -0.055645883 -0.20203874 0.08361785 0.149423
-0.15205383 0.0048525026 -0.025146613 0.15555196 -0.043580674 -0.16824855 -0.072928295 0.2838035
-0.24301043 0.16366576 0.3700512 -0.44725147 -0.078260794 0.19497679 0.1821225 0.025853327
-0.19626439 0.06983132 0.018967452 -0.091082335 -0.24385154 -0.20752156 0.016152702 -0.08424911
-0.19430658 -0.26785442 0.04251491 0.004961121 -0.11237973 0.17671436 -0.050259184 -0.13845262
0.30429274 -0.097741 -0.23153363 -0.19630599 -0.17958626 0.3158263 0.20689131 -0.07480143
-0.020596763 -0.17225385 0.12110591 -0.4475997 -0.06686245 0.30789974 0.51338583 -0.16127299
00000000: 059b 253c c5ae 1dbd 95ad 88be 6f9f 88be
00000010: b628 0a3e 2654 a63e bf89 bfbc 0dfa e73d
00000020: d7a9 41be 2710 0b3d cd77 b239 6cd9 a1be
00000030: ae1d e0bd 1cd5 77be 8411 dbbd 8bdd 0a3e
00000040: d72e f73d bc11 95be ef7d 86be 023e 103f
00000050: 0f07 adbd 40cb 1abe 941b 8dbc 98e6 a8be
00000060: 91d2 87bc 94fa 9a3e 76e1 9f3c 1637 6dbd
00000070: e9a0 2fbd 5fb9 af3d 0243 9abe 3990 1d3c
00000080: 55cf d2be 7d5c da3c 02b7 533e 499b abbe
00000090: 44ab 0cbd fda5 9ebd a2f4 8fbd f9fe 853c
000000a0: 521a a6be f05a e3bd aa1b 3d3e bebc 193e
000000b0: df67 aabe b4be bd3c ca0f 823e 3709 3fbe
000000c0: dd58 a93a 38e5 00bf f11d d8bd 5720 80be
000000d0: 8960 e1be b062 403e 760a 863d ae82 7b3e
000000e0: 8c88 c2bd df51 a83e 667f 7e3e 5996 3dbe
000000f0: 780b 293e f034 773b f224 12be 3376 44bd
00000100: 7cad 3ebe 0987 cebd 2869 af3d f024 1fbe
00000110: 4fcb b73e dc4d af3e d9e0 0ebe c49d b63c
00000120: 2f1b 893e 3441 e9bc e9da c13e 806e b3bd
00000130: 8117 0cbd 5169 9cbe f890 0bbe 9a30 933e
00000140: 8741 593c 9bc6 ebbd 8433 ccbe d03f 133e
00000150: ef2e 14bd 8782 573e 3f0f 2abe 9a60 65bd
00000160: 2669 dc3d ba32 ca3e a55a 113f eec2 603d
00000170: f5f0 a93d 7cb4 a4bd c828 44be 667d dabd
00000180: 7c32 c23d c7c9 d1bd 5290 ea3e 5b62 e1bd
00000190: 9e0c c63d 0be6 6e3d a54b f23d 63ec d03d
000001a0: 6d23 6dbe fbc4 af3e 89ec a03d dec5 563d
000001b0: 0ba5 54bd 8fed c73d 7fd0 1a3d c619 b4be
000001c0: a033 c0bd 1932 9d3d 936b d0bd bc77 17be
000001d0: 7489 92bd 7d14 0f3e ce80 afbc 3430 9a3e
000001e0: a953 c33d 8996 e4ba 6da4 373e 03ce 15bc
000001f0: 1202 bfbb 4604 bb3e ba26 223f 4c54 a03d
00000200: 12dc 313e a662 f2bb f87d 7c3d 1890 963e
00000210: 006f 60be 7328 18bc 1a85 f73d dc0e a73e
00000220: 59a1 8fbe f400 033d 6a2e b43e 7b90 943e
00000230: d094 5a3d 3aee 3f3e 2442 2b3e c55f 9fbe
00000240: 5814 dfbd 8dd0 233f 2800 813e f33a 79bc
00000250: 8a12 6f3e 597e 363e 9a98 ef3d b184 87be
00000260: 5ade af3e 2bb8 13bd c86c be3d 54cf b53d
00000270: f9af 923c b1a5 083e bcbb 3e3e b843 643e
00000280: dccb d13c eb0c a13d 0301 4ebe ec75 bc3e
00000290: c139 8bbd 34de 9d3e 3a9f 2d3b f559 193d
000002a0: a96b 043d 2287 90be 64a1 20be d8fd cd3d
000002b0: ab46 de3d c232 a5be 154e 67bc 7d44 bc3e
000002c0: 8ce5 863e d32e 2e3e fea4 8c3d 5089 6b3d
000002d0: 8573 993e 0715 5dbd f154 8f3d 4d3c 1fbe
000002e0: c096 39bd 41aa b73e d674 e4bd 9f1d 103e
000002f0: 48b5 f3bc 9be0 b53e 5374 83be 435c 473e
00000300: 7ef7 8cbd bf1c 40be 8c57 f0bd 4882 d3be
00000310: 44e8 223e 37a9 213e 9c76 b8bc 554a b4be
00000320: e1ae 233e 7f08 d03e 2807 0bbc 0881 dcbe
00000330: f0ec 63bd 3ee3 4ebe d63f ab3d 5802 193e
00000340: 00b4 1bbe be01 9f3b 4500 cebc 0349 1f3e
00000350: a681 32bd 5949 2cbe 6e5b 95bd b14e 913e
00000360: bad7 78be ff97 273e 5a77 bd3e 25fe e4be
00000370: 3247 a0bd ffa7 473e 527e 3a3e 5bca d33c
00000380: 88f9 48be b903 8f3d a161 9b3c 6089 babd
00000390: 38b4 79be 8880 54be ac52 843c cc8a acbd
000003a0: 4ef8 46be 3724 89be 1d24 2e3d e690 a23b
000003b0: 5827 e6bd 9cf4 343e 93dc 4dbd 86c6 0dbe
000003c0: 42cc 9b3e 6f2c c8bd 2717 6dbe 7004 49be
000003d0: 76e5 37be fcb3 a13e 51db 533e 7e31 99bd
000003e0: 8bba a8bc 5063 30be 6006 f83d ca2b e5be
000003f0: 2eef 88bd 09a5 9d3e 416d 033f bf24 25be

critic.2.bias f4 [64]
0.18175374 0.15373527 -0.1529945 0.16320108 -0.1793377 0.19868055 -0.14572698 -0.19766562
0.14036284 0.1470562 0.1462038 0.16906305 -0.1510545 0.14960934 -0.12440995 0.14009118
-0.14712232 0.16245513 -0.16107118 -0.117045306 -0.11864133 0.16511312 0.12789796 0.11775027
-0.16380456 -0.13443887 -0.12175838 -0.1663824 0.14623372 -0.13781461 0.124588765 -0.13523524
0.22099802 0.16533713 -0.15713371 -0.16884737 -0.11950055 0.11044784 0.17978269 0.11933514
0.13874313 -0.1402697 0.15741396 0.15916829 -0.14053544 -0.13940476 0.14783385 -0.13600643
-0.2064964 0.12347893 0.1045753 -0.15442058 0.16546385 0.15504535 0.17312026 -0.19095753
-0.15840258 -0.18720654 0.16351673 0.18114874 -0.13255984 -0.18336935 -0.13420984 0.14769267
00000000: a71d 3a3e c76c 1d3e 97aa 1cbe 2f1e 273e
00000010: 4da4 37be ea72 4b3e 7439 15be db68 4abe
00000020: 47bb 0f3e e795 163e 73b6 153e dd1e 2d3e
00000030: 08ae 1abe 3133 193e a5ca febd 1074 0f3e
00000040: 3ca7 16be a35a 263e d8ef 24be 73b5 efbd
00000050: 3afa f2bd 6a13 293e aff7 023e 0e27 f13d
00000060: 62bc 27be 58aa 09be 755c f9bd 2660 2abe
00000070: 4bbe 153e 461f 0dbe 6528 ff3d 1b7b 0abe
00000080: 4e4d 623e 234e 293e a9e7 20be 53e6 2cbe
00000090: b4bc f4bd 7a32 e23d f418 383e fb65 f43d
000000a0: ae12 0e3e dca2 0fbe 2031 213e 03fd 223e
000000b0: 86e8 0fbe 1fc0 0ebe c261 173e 4545 0bbe
000000c0: cb73 53be 85e2 fc3d 932b d63d 6e20 1ebe
000000d0: 5b6f 293e 35c4 1e3e 7046 313e 5f8a 43be
000000e0: 4934 22be 12b3 3fbe ee70 273e 0e7f 393e
000000f0: c4bd 07be 2dc5 3bbe 4e6e 09be bf3c 173e

critic.4.weight f4 [1, 64]
2.0391002 2.1265497 -2.1008575 2.1082413 -2.0289354 2.1006095 -2.0091882 -2.0893245
2.0464604 2.1776752 2.1774986 2.0773764 -2.1997223 2.0246596 -2.144871 2.2656868
-2.0268853 2.198915 -2.1681435 -1.9577967 -1.9711187 2.0553288 2.1831002 2.218346
-1.9976702 -2.147642 -2.1295977 -2.0931413 2.1861575 -2.1981876 2.1081483 -2.0358446
2.1203449 2.1470947 -2.0737967 -2.030371 -2.0617204 1.9348824 2.085359 2.053657
1.990177 -2.2222927 1.9868456 2.0358403 -1.9645175 -2.2088683 2.1711504 -2.021184
-1.9819423 2.0199418 2.0809076 -2.2223487 2.1143184 2.0699115 2.0494804 -2.0293458
-2.1856947 -2.0312684 2.0419786 2.0624084 -2.2041476 -2.016081 -2.0539052 2.1160908
00000000: 9e80 0240 6419 0840 7374 06c0 6ded 0640
00000010: 14da 01c0 6370 0640 8a96 00c0 7eb7 05c0
00000020: 35f9 0240 085f 0b40 235c 0b40 bcf3 0440
00000030: 40c8 0cc0 0694 0140 9145 09c0 0301 1140
00000040: 7db8 01c0 06bb 0c40 ddc2 0ac0 1599 fabf
00000050: 9e4d fcbf 828a 0340 eab7 0b40 62f9 0d40
00000060: a8b3 ffbf f772 09c0 544b 08c0 07f6 05c0
00000070: 01ea 0b40 1baf 0cc0 e7eb 0640 474b 02c0
00000080: bbb3 0740 006a 0940 16b9 04c0 99f1 01c0
00000090: 3af3 03c0 3aaa f73f 8676 0540 1e6f 0340
000000a0: 1fbe fe3f 0b3a 0ec0 f550 fe3f 354b 0240
000000b0: 4f75 fbbf 195e 0dc0 21f4 0a40 145b 01c0
000000c0: 49b0 fdbf ba46 0140 972d 0540 f63a 0ec0
000000d0: fe50 0740 6e79 0440 b02a 0340 cde0 01c0
000000e0: 6ce2 0bc0 4d00 02c0 c7af 0240 80fe 0340
000000f0: c110 0dc0 7907 01c0 2f73 03c0 086e 0740
